hand_gesture_model_quantized.tflite (tflite, 17800 bytes, 3 tensors)

sequential/dense_2/MatMul i1 [9, 64] scale=0.008075343 zero_point=0
00000000: bbff 8513 1325 1c04 a71b 13a7 221d 1bb6
00000010: b21b e21d 1fa1 19e3 ffd9 c20a 32e3 14a8
00000020: b481 1a17 19e4 2717 ae02 19f0 fe19 9d21
00000030: 05d4 db11 fcd1 15d6 1cc1 a814 fe05 1dbb
00000040: 2623 d9dc af33 f1d0 0e43 e39d d3f4 229b
00000050: 1d2a 31f2 df1b 2914 02b0 16d4 2af2 c7d7
00000060: 3308 aeec d31d 000f 0f0f 1d2c c5f6 2914
00000070: f124 86ec 151c e7f0 26ae a3b7 dee5 bec1
00000080: 1fe1 d4c3 112e ed9c 0121 1ffa c190 b936
00000090: e7b5 2032 ed10 d302 fd17 a7cb c5aa 1a28
000000a0: 340d 0dc9 3387 b329 190f d4de 112f a8a6
000000b0: 17cc c917 0530 28f1 bfec c9cf ecca c025
000000c0: 9a4c 2633 22e1 ca1b a512 9f1d e916 e7f1
000000d0: 2a25 f31d df18 13a7 133e fd14 3b17 a3e7
000000e0: db96 e7d4 b5ca bbbe 0eb1 cc25 b603 2518
000000f0: b621 131a 0c16 b156 0628 210d ba0a e6e6
-0.5571987 -0.008075343 -0.99326724 0.15343152 0.15343152 0.2987877 0.22610962 0.032301374
-0.7187056 0.21803427 0.15343152 -0.7187056 0.27456167 0.23418497 0.21803427 -0.5975754
-0.6298768 0.21803427 -0.2422603 0.23418497 0.25033563 -0.7671576 0.20188358 -0.23418497
-0.008075343 -0.3149384 -0.50067127 0.08075343 0.40376717 -0.23418497 0.16150686 -0.71063024
-0.6137261 -1.0255686 0.20995893 0.1857329 0.20188358 -0.22610962 0.3149384 0.1857329
-0.66217816 0.016150687 0.20188358 -0.1292055 -0.016150687 0.20188358 -0.799459 0.26648635
0.040376715 -0.35531512 -0.2987877 0.13728084 -0.032301374 -0.37954113 0.16958222 -0.33916444
0.22610962 -0.5087466 -0.71063024 0.16150686 -0.016150687 0.040376715 0.23418497 -0.5571987
0.30686304 0.28263703 -0.3149384 -0.29071236 -0.6541028 0.41184253 -0.12113015 -0.3876165
0.11305481 0.541048 -0.23418497 -0.799459 -0.36339045 -0.09690412 0.27456167 -0.8156097
0.23418497 0.33916444 0.39569184 -0.11305481 -0.26648635 0.21803427 0.33108908 0.16150686
0.016150687 -0.64602745 0.17765756 -0.35531512 0.33916444 -0.11305481 -0.46029457 -0.33108908
0.41184253 0.06460275 -0.66217816 -0.16150686 -0.36339045 0.23418497 0.0 0.12113015
0.12113015 0.12113015 0.23418497 0.35531512 -0.47644526 -0.08075343 0.33108908 0.16150686
-0.12113015 0.29071236 -0.9851919 -0.16150686 0.16958222 0.22610962 -0.20188358 -0.1292055
0.30686304 -0.66217816 -0.75100696 -0.58950007 -0.27456167 -0.21803427 -0.5329727 -0.5087466
0.25033563 -0.25033563 -0.35531512 -0.49259594 0.13728084 0.3714658 -0.15343152 -0.80753434
0.008075343 0.26648635 0.25033563 -0.04845206 -0.5087466 -0.9044385 -0.57334936 0.43606853
-0.20188358 -0.6056508 0.258411 0.40376717 -0.15343152 0.1292055 -0.36339045 0.016150687
-0.02422603 0.1857329 -0.7187056 -0.4279932 -0.47644526 -0.6944795 0.20995893 0.32301372
0.41991785 0.10497946 0.10497946 -0.4441439 0.41184253 -0.9771166 -0.62180144 0.33108908
0.20188358 0.12113015 -0.35531512 -0.27456167 0.13728084 0.37954113 -0.71063024 -0.7267809
0.1857329 -0.41991785 -0.4441439 0.1857329 0.040376715 0.3876165 0.32301372 -0.12113015
-0.52489734 -0.16150686 -0.4441439 -0.39569184 -0.16150686 -0.43606853 -0.516822 0.2987877
-0.82368505 0.6137261 0.30686304 0.41184253 0.27456167 -0.25033563 -0.43606853 0.21803427
-0.73485625 0.14535618 -0.7833083 0.23418497 -0.1857329 0.17765756 -0.20188358 -0.12113015
0.33916444 0.2987877 -0.10497946 0.23418497 -0.26648635 0.19380824 0.15343152 -0.7187056
0.15343152 0.50067127 -0.02422603 0.16150686 0.47644526 0.1857329 -0.75100696 -0.20188358
-0.2987877 -0.8559864 -0.20188358 -0.35531512 -0.6056508 -0.43606853 -0.5571987 -0.5329727
0.11305481 -0.63795215 -0.41991785 0.2987877 -0.5975754 0.02422603 0.2987877 0.19380824
-0.5975754 0.26648635 0.15343152 0.20995893 0.09690412 0.17765756 -0.63795215 0.6944795
0.04845206 0.32301372 0.26648635 0.10497946 -0.56527406 0.08075343 -0.20995893 -0.20995893

sequential/dense_1/MatMul i1 [64, 128] scale=0.0076247877 zero_point=0
00000000: 11fd 57ff 05ea 07dc 3a17 2fec 2519 c314
00000010: f2ff c8d1 2803 3c00 17cb 13e9 202f 0ef6
00000020: 2efc 27fd 12d6 2cf1 0dd3 11fb 0a3c e402
00000030: f906 1d14 3de1 fd02 29e4 0031 fcfe 05e9
00000040: 2ede c019 dc04 fd2d 2fe7 b718 ea32 0f07
00000050: f013 10e4 ba10 f225 d504 fe19 d63a fb2e
00000060: fccc d507 ffd9 24d4 f8ff d923 1ed3 eb0a
00000070: 1107 3528 e313 c307 1de8 00f6 0222 1625
00000080: 2efb 0cf7 fb05 0723 152e fc06 0fd8 09f8
00000090: 33f5 04c9 fb07 1c00 10de 1200 0cfe 21e0
000000a0: f293 dfea 4219 01f3 0112 07ea 0bfd b6ff
000000b0: 0929 0510 2231 fae4 e5de e8dd 0195 f507
000000c0: 2717 18f9 053d f307 09f0 3829 1ae1 00e9
000000d0: f6df 16da 12e4 0dd2 130d 1dee 24f3 f50a
000000e0: 1dff 0bf6 fdd8 0029 eaec 1e04 38b5 20f7
000000f0: fe04 2a0b 0407 1d12 0217 f405 06d1 2026
0.12962139 -0.022874363 0.66335654 -0.0076247877 0.03812394 -0.16774534 0.053373516 -0.27449235
0.44223768 0.17537011 0.35836503 -0.15249576 0.28211716 0.19061969 -0.46511206 0.15249576
-0.10674703 -0.0076247877 -0.42698812 -0.35836503 0.3049915 0.022874363 0.45748726 0.0
0.17537011 -0.40411374 0.14487097 -0.17537011 0.24399321 0.35836503 0.10674703 -0.07624788
0.35074022 -0.030499151 0.2973667 -0.022874363 0.13724618 -0.3202411 0.33549067 -0.114371814
0.09912224 -0.34311545 0.12962139 -0.03812394 0.07624788 0.45748726 -0.21349406 0.0152495755
-0.053373516 0.045748726 0.22111884 0.15249576 0.46511206 -0.23636842 -0.022874363 0.0152495755
0.3126163 -0.21349406 0.0 0.3736146 -0.030499151 -0.0152495755 0.03812394 -0.17537011
0.35074022 -0.25924277 -0.48798642 0.19061969 -0.27449235 0.030499151 -0.022874363 0.34311545
0.35836503 -0.19061969 -0.5566095 0.1829949 -0.16774534 0.38123938 0.114371814 0.053373516
-0.121996604 0.14487097 0.121996604 -0.21349406 -0.53373516 0.121996604 -0.10674703 0.28211716
-0.32786587 0.030499151 -0.0152495755 0.19061969 -0.3202411 0.44223768 -0.03812394 0.35074022
-0.030499151 -0.39648896 -0.32786587 0.053373516 -0.0076247877 -0.2973667 0.27449235 -0.33549067
-0.060998302 -0.0076247877 -0.2973667 0.26686758 0.22874363 -0.34311545 -0.16012055 0.07624788
0.12962139 0.053373516 0.40411374 0.3049915 -0.22111884 0.14487097 -0.46511206 0.053373516
0.22111884 -0.1829949 0.0 -0.07624788 0.0152495755 0.25924277 0.16774534 0.28211716
0.35074022 -0.03812394 0.09149745 -0.06862309 -0.03812394 0.03812394 0.053373516 0.26686758
0.16012055 0.35074022 -0.030499151 0.045748726 0.114371814 -0.3049915 0.06862309 -0.060998302
0.3888642 -0.08387267 0.030499151 -0.41936332 -0.03812394 0.053373516 0.21349406 0.0
0.121996604 -0.25924277 0.13724618 0.0 0.09149745 -0.0152495755 0.251618 -0.24399321
-0.10674703 -0.83110183 -0.251618 -0.16774534 0.503236 0.19061969 0.0076247877 -0.09912224
0.0076247877 0.13724618 0.053373516 -0.16774534 0.08387267 -0.022874363 -0.5642343 -0.0076247877
0.06862309 0.3126163 0.03812394 0.121996604 0.25924277 0.3736146 -0.045748726 -0.21349406
-0.20586927 -0.25924277 -0.1829949 -0.26686758 0.0076247877 -0.8158523 -0.08387267 0.053373516
0.2973667 0.17537011 0.1829949 -0.053373516 0.03812394 0.46511206 -0.09912224 0.053373516
0.06862309 -0.121996604 0.42698812 0.3126163 0.19824448 -0.23636842 0.0 -0.17537011
-0.07624788 -0.251618 0.16774534 -0.28974193 0.13724618 -0.21349406 0.09912224 -0.35074022
0.14487097 0.09912224 0.22111884 -0.13724618 0.27449235 -0.09912224 -0.08387267 0.07624788
0.22111884 -0.0076247877 0.08387267 -0.07624788 -0.022874363 -0.3049915 0.0 0.3126163
-0.16774534 -0.15249576 0.22874363 0.030499151 0.42698812 -0.57185906 0.24399321 -0.06862309
-0.0152495755 0.030499151 0.3202411 0.08387267 0.030499151 0.053373516 0.22111884 0.13724618
0.0152495755 0.17537011 -0.09149745 0.03812394 0.045748726 -0.35836503 0.24399321 0.28974193

sequential/dense/MatMul i1 [128, 42] scale=0.008123002 zero_point=0
00000000: eafc d40f ff30 0938 0442 e6ed e52d f41e
00000010: ee2e 01e7 f316 f512 de39 05f5 f5fd 0f01
00000020: 0afb 2514 f00d 08fc edff f6ec e6fc e006
00000030: f820 0701 eae4 0111 172e f738 04ff fc30
00000040: 2012 0afc 2a0e 1504 12f3 ecee 29f5 230b
00000050: 13fa 28f0 0704 c9f6 e9e6 01e1 fce0 00e5
00000060: e724 e30f 023e f2cc e322 eb11 ec2b 2003
00000070: fa15 0b12 03e5 0700 0925 0731 effa ff0d
00000080: fbe2 e4f8 f9d9 fbe4 0d17 0804 e7e2 ecfd
00000090: f607 f3e6 d2e6 c710 1308 e6fd ec0a fd16
000000a0: 0720 e3f7 111f 1549 0e0f f9fb dcff e2f7
000000b0: e8ea 1010 1300 f0ee e7f4 0b06 09dd d6f8
000000c0: f2f3 0315 e102 faec f608 04fd e902 f537
000000d0: 1440 f313 1705 260a 2203 1810 f7fe 1700
000000e0: 17f2 10e7 eaf2 edf5 03f1 fbd9 0aef edf9
000000f0: f8db 1d02 f9e2 e7d3 0de8 09ff fe05 090d
-0.17870605 -0.032492008 -0.3574121 0.12184503 -0.008123002 0.38990408 0.07310702 0.4548881
0.032492008 0.53611815 -0.21119805 -0.15433703 -0.21932106 0.36553508 -0.09747602 0.24369006
-0.14621404 0.3736581 0.008123002 -0.20307505 -0.10559902 0.17870605 -0.089353025 0.14621404
-0.27618206 0.46301112 0.04061501 -0.089353025 -0.089353025 -0.024369005 0.12184503 0.008123002
0.08123002 -0.04061501 0.3005511 0.16246004 -0.12996803 0.10559902 0.064984016 -0.032492008
-0.15433703 -0.008123002 -0.08123002 -0.16246004 -0.21119805 -0.032492008 -0.25993606 0.04873801
-0.064984016 0.25993606 0.056861013 0.008123002 -0.17870605 -0.22744405 0.008123002 0.13809103
0.18682905 0.3736581 -0.07310702 0.4548881 0.032492008 -0.008123002 -0.032492008 0.38990408
0.25993606 0.14621404 0.08123002 -0.032492008 0.34116608 0.11372203 0.17058304 0.032492008
0.14621404 -0.10559902 -0.16246004 -0.14621404 0.33304307 -0.089353025 0.28430507 0.089353025
0.15433703 -0.04873801 0.3249201 -0.12996803 0.056861013 0.032492008 -0.44676512 -0.08123002
-0.18682905 -0.21119805 0.008123002 -0.25181305 -0.032492008 -0.25993606 0.0 -0.21932106
-0.20307505 0.29242808 -0.23556706 0.12184503 0.016246004 0.5036261 -0.11372203 -0.4223961
-0.23556706 0.27618206 -0.17058304 0.13809103 -0.16246004 0.3492891 0.25993606 0.024369005
-0.04873801 0.17058304 0.089353025 0.14621404 0.024369005 -0.21932106 0.056861013 0.0
0.07310702 0.3005511 0.056861013 0.3980271 -0.13809103 -0.04873801 -0.008123002 0.10559902
-0.04061501 -0.24369006 -0.22744405 -0.064984016 -0.056861013 -0.31679708 -0.04061501 -0.22744405
0.10559902 0.18682905 0.064984016 0.032492008 -0.20307505 -0.24369006 -0.16246004 -0.024369005
-0.08123002 0.056861013 -0.10559902 -0.21119805 -0.3736581 -0.21119805 -0.46301112 0.12996803
0.15433703 0.064984016 -0.21119805 -0.024369005 -0.16246004 0.08123002 -0.024369005 0.17870605
0.056861013 0.25993606 -0.23556706 -0.07310702 0.13809103 0.25181305 0.17058304 0.59297913
0.11372203 0.12184503 -0.056861013 -0.04061501 -0.29242808 -0.008123002 -0.24369006 -0.07310702
-0.19495204 -0.17870605 0.12996803 0.12996803 0.15433703 0.0 -0.12996803 -0.14621404
-0.20307505 -0.09747602 0.089353025 0.04873801 0.07310702 -0.28430507 -0.34116608 -0.064984016
-0.11372203 -0.10559902 0.024369005 0.17058304 -0.25181305 0.016246004 -0.04873801 -0.16246004
-0.08123002 0.064984016 0.032492008 -0.024369005 -0.18682905 0.016246004 -0.089353025 0.44676512
0.16246004 0.5198721 -0.10559902 0.15433703 0.18682905 0.04061501 0.30867407 0.08123002
0.27618206 0.024369005 0.19495204 0.12996803 -0.07310702 -0.016246004 0.18682905 0.0
0.18682905 -0.11372203 0.12996803 -0.20307505 -0.17870605 -0.11372203 -0.15433703 -0.089353025
0.024369005 -0.12184503 -0.04061501 -0.31679708 0.08123002 -0.13809103 -0.15433703 -0.056861013
-0.064984016 -0.3005511 0.23556706 0.016246004 -0.056861013 -0.24369006 -0.20307505 -0.36553508
0.10559902 -0.19495204 0.07310702 -0.008123002 -0.016246004 0.04061501 0.07310702 0.10559902
