hand_gesture_model.tflite (tflite, 59472 bytes, 6 tensors)

sequential/dense_1/BiasAdd/ReadVariableOp f4 [64]
000000 da bb 39 3e 4a 4f b5 3d 81 6f 4e 3d 69 17 c7 bd
       0.18138066 0.08853014 0.050399307 -0.09721262
000010 17 df 72 bd 61 fe 6d 3e 26 db 71 3d 7f a5 1d bd
       -0.059294786 0.23241569 0.059046887 -0.038487907
000020 bf 24 8d 3d 18 c3 9d 3e 1f c2 e9 3c bf 76 01 3d
       0.068917744 0.30812907 0.028534947 0.031607386
000030 1c dc ab bd 7b a7 16 3e 48 aa e8 3d ce 1a 9a 3d
       -0.08391592 0.14712326 0.113606036 0.07524644
000040 7b e5 03 3e 1e df 9c 3e ce 56 36 3e bb 08 31 3e
       0.12880509 0.30638975 0.17806551 0.17288487
000050 a7 a8 fe 3a b1 58 77 3e 88 e8 89 3e 04 c5 99 3d
       0.0019428924 0.24154927 0.2693522 0.07508281
000060 62 b6 96 bc 5e 16 29 3d 23 f9 6b bd 85 0f 30 3d
       -0.018397514 0.041281097 -0.057610642 0.04298355
000070 99 a3 1c 3e ea 7f 49 be 97 91 88 3d d1 e0 00 bd
       0.15296783 -0.19677702 0.06668394 -0.0314644
000080 57 f0 52 3d 1e 33 98 3e c3 6f fc bd 8e c1 3c be
       0.051498737 0.297265 -0.12326004 -0.1843321
000090 98 64 8f 3d c7 c0 51 bd 3f 09 5b 3d 57 16 70 3e
       0.070016086 -0.051209237 0.053475615 0.23446022
0000a0 cc 7c 67 3e 88 62 36 3e 7e 28 7a 3c 6e 71 0e 3e
       0.226062 0.17811024 0.015268443 0.13910457
0000b0 fd ef 83 3d 7a 05 60 3e a0 b3 7a 3e f7 75 e8 3d
       0.064422585 0.21877089 0.24482584 0.11350625
0000c0 62 93 38 3d 4e 4a f3 3d 98 29 d1 bc 34 42 b7 3d
       0.04506243 0.11879407 -0.025532529 0.08948174
0000d0 a2 b6 67 3e 81 6a 8f 3e 48 81 44 3d 91 b5 18 3e
       0.22628263 0.28010944 0.047974855 0.14913012
0000e0 75 be 48 3e a3 1e 71 bd e3 da 5f bd 5a ca ba bc
       0.19603904 -0.058867108 -0.054652106 -0.022801567
0000f0 23 a5 88 bd f6 b8 ac 3d f9 5e 09 be 72 4b d5 bd
       -0.06672122 0.08433716 -0.13415135 -0.10414781

sequential/dense_2/BiasAdd/ReadVariableOp f4 [9]
000000 89 5a 5a 3e 9c 64 86 3e 10 62 14 3e 5f 05 9a 3c
       0.21323599 0.26248634 0.14490533 0.01880139
000010 01 77 8a be c5 49 04 be 81 cb c3 bd 29 1c 06 3d
       -0.27043918 -0.12918766 -0.095603 0.0327417
000020 d4 a4 9b be
       -0.3039919

sequential/dense/BiasAdd/ReadVariableOp f4 [128]
000000 01 69 ff bc 22 d5 55 3d 70 ea 39 3e 4c 8f 7a bc
       -0.031178 0.052205212 0.18155837 -0.015292954
000010 e4 db 80 bb 87 5b 4e bd e1 e6 91 3d 07 65 0e 3e
       -0.003932463 -0.050380256 0.07124115 0.13905726
000020 a3 c8 8b 3c 7b 63 54 3e ef 84 a3 3c 05 83 c1 bd
       0.017063444 0.20741074 0.019960849 -0.09448818
000030 24 38 c8 3d 54 95 27 bd a8 c8 3e bd 22 f9 b6 3c
       0.09776333 -0.040913895 -0.04657808 0.022335593
000040 bf 40 76 bd c8 12 0f 3d c3 08 3e bd 95 10 d5 bd
       -0.06012034 0.03493002 -0.046395075 -0.104035534
000050 d4 59 91 3d 22 b4 bc 3d 47 64 30 3e a5 f5 cf bd
       0.070972115 0.09214045 0.17225753 -0.10154275
000060 22 af 0c 3e fb 7a 27 be 31 ab e5 3d 03 9f 9e bd
       0.13738683 -0.16355507 0.11214293 -0.07745173
000070 53 e6 21 3a d5 89 1f bd 23 49 c0 3a 31 ea ba bd
       0.00061759836 -0.038949806 0.0014670234 -0.091267
000080 25 83 f6 3d 70 0b 66 bd 33 bb 37 3d c8 60 03 3e
       0.120367326 -0.05616325 0.04485626 0.12829888
000090 ce 67 44 be 13 20 e9 bc be 58 04 3d 94 1b af bd
       -0.19180223 -0.028457677 0.032311194 -0.08550182
0000a0 7d d9 61 3e ba 5f 50 bb d5 ae 1e 3d 14 e9 60 bd
       0.22055621 -0.0031795339 0.03874095 -0.05490978
0000b0 c7 b8 86 3c 98 a3 94 bc a1 81 a8 bc 8c 28 86 3d
       0.01644553 -0.018144414 -0.020569624 0.065507025
0000c0 2f 27 80 3d 66 3c 4d be 50 93 7f bc 13 a2 91 3d
       0.06257474 -0.20042571 -0.015599087 0.07110991
0000d0 e1 b7 41 3c 81 b5 6f be 8e cd ec bb 3c 7f 63 be
       0.011823625 -0.23409082 -0.0072266525 -0.22216505
0000e0 63 68 53 3d 95 10 b4 bd 9d b8 98 bd e5 dc 9b 3d
       0.051613223 -0.08792225 -0.07457087 0.07610492
0000f0 d1 c5 f0 bd 91 36 ae bd 65 bb 04 3c 19 0a 90 bd
       -0.117564805 -0.085065015 0.008101319 -0.07033176
000100 35 14 98 bb db 0b 68 3d 78 94 17 bd d2 eb 46 3e
       -0.0046410807 0.05665193 -0.037006825 0.19425896
000110 c9 29 64 3d 9f 57 54 3e ff 35 73 3d e2 b7 e2 3b
       0.055703912 0.2073655 0.059377667 0.006918893
000120 88 de 2e 3e 75 31 b6 bd 64 67 63 3b 42 a6 25 3d
       0.17077076 -0.08896152 0.0034699077 0.04044176
000130 a0 f2 e3 bc e0 58 e8 bd 4d cf 81 3d 98 0a ef bb
       -0.027825654 -0.113450766 0.063383676 -0.007294964
000140 ef 67 70 3d e6 41 54 be 75 71 0c 3e 51 e8 f6 bc
       0.05869287 -0.20728263 0.13715155 -0.030140074
000150 8f 4b e3 bc 2c 05 cf bd 18 b5 a0 bd b5 d3 e2 3d
       -0.02774599 -0.10108408 -0.07847041 0.11075536
000160 13 54 e9 bc cf 82 e0 bd 80 38 cd 3b 0d e7 e0 3c
       -0.028482473 -0.1096245 0.006262839 0.027453924
000170 2d c3 a9 bc e3 94 52 3e 2e 2a 98 3a fa ff 8f 3d
       -0.02072295 0.20564608 0.001160925 0.070312455
000180 50 26 61 3e 22 9b 57 be e0 27 8b bd 73 b7 c3 bb
       0.21987271 -0.21055272 -0.06794715 -0.0059727966
000190 35 75 62 3e 63 fa 4a bd fd 6b 4d 3e 67 01 8d be
       0.22115023 -0.049555194 0.20060726 -0.27540132
0001a0 f3 02 ef 3b c3 07 ee 3c f4 cd 46 bd b6 2c 9b bc
       0.0072940527 0.029056435 -0.048536256 -0.018942218
0001b0 aa dd 33 be 0a 8e bd bd e1 70 3b bc f8 74 ed 3d
       -0.17565027 -0.092556074 -0.011440487 0.11594576
0001c0 ec 2d ee 3d 48 fc 8e be 47 03 2d 3e 63 5c ea 3c
       0.11629853 -0.2792685 0.16895781 0.028608507
0001d0 c6 db 17 bd 5f 48 e9 3d c2 1b eb 3b ff bf 8c 3d
       -0.037074827 0.11390757 0.00717494 0.06872558
0001e0 ed 9a 1b 3e 79 cf e0 bd 1f 93 2b be 94 e3 83 3d
       0.15195818 -0.10977072 -0.16755341 0.064398915
0001f0 71 13 4e 3c 00 3e 95 3d 15 eb a7 3d 06 6b e6 bc
       0.012577877 0.07287216 0.08199135 -0.028127205

sequential/dense/MatMul f4 [128, 42]
000000 51 ae 38 be 84 23 0c bd 07 10 b7 be f0 e1 fe 3d
       -0.18035246 -0.034213558 -0.35754415 0.12445438
000010 cb ff ca bb 7d 68 c6 3e 9d 55 9c 3d 38 40 ea 3e
       -0.0061950437 0.38751593 0.07633517 0.4575212
000020 98 af eb 3c 81 13 09 3f 0f 43 5a be 31 ba 1f be
       0.028770253 0.53545386 -0.21314643 -0.1559837
000030 e3 5f 5e be b2 26 ba 3e 69 ea c0 bd 33 97 75 3e
       -0.21716265 0.36357647 -0.0941971 0.23983459
000040 5c 7e 19 be 73 e3 bf 3e 92 64 b6 3b 6d d5 50 be
       -0.14989609 0.37478217 0.005566188 -0.20393915
000050 37 cb db bd 15 f7 38 3e a6 7f b0 bd fb d8 15 3e
       -0.107321195 0.18063004 -0.08618097 0.14633553
000060 9e 84 8c be e6 d0 ed 3e 4c c9 34 3d 0a e8 b2 bd
       -0.2744493 0.4644844 0.044137284 -0.08735664
000070 d8 24 b8 bd 5b 41 ca bc 50 17 fc 3d ca 87 e8 3b
       -0.089914024 -0.024689367 0.12309134 0.0070962654
000080 ca 35 ac 3d 5c fa 16 bd 13 f6 9b 3e 2e 38 22 3e
       0.08408697 -0.036859855 0.30461177 0.15841743
000090 52 61 05 be 6b 52 de 3d 16 bb 85 3d df 93 0e bd
       -0.13025406 0.10855564 0.065298244 -0.03480899
0000a0 6d f3 21 be 3e be ab bb 4a 9f a3 bd 03 8a 28 be
       -0.15815516 -0.0052411845 -0.07989366 -0.16458897
0000b0 fc ae 5a be d2 87 0a bd c7 a9 84 be cd f2 4f 3d
       -0.21355814 -0.033820935 -0.2591078 0.050768662
0000c0 2e 2c 84 bd 37 08 85 3e 38 55 64 3d fc c8 b4 3b
       -0.06453739 0.2598283 0.055745333 0.0055171233
0000d0 6e 67 35 be a3 d9 69 be de d0 bb 3b 85 68 0f 3e
       -0.17715237 -0.22836928 0.005731686 0.14004715
0000e0 e2 5c 3f 3e c9 68 be 3e 18 54 98 bd 87 d4 e8 3e
       0.18687776 0.3718932 -0.074379146 0.45474645
0000f0 20 a4 ec 3c 9a 81 0b bc 8d d8 0c bd 56 3a c9 3e
       0.028886855 -0.008514786 -0.034386206 0.3930232
000100 4a 3d 86 3e a3 a3 13 3e 8f c7 a6 3d 14 cc 09 bd
       0.26218635 0.14417891 0.081435315 -0.03364189
000110 32 5e ae 3e f4 42 e8 3d 3c cb 30 3e c1 c9 f1 3c
       0.3405624 0.11340895 0.17265028 0.02951515
000120 0d ac 11 3e c9 10 dc bd f9 1a 2a be 48 19 13 be
       0.14225788 -0.10745389 -0.16611852 -0.14365113
000130 1d 2c a9 3e 20 fa ba bd 02 85 91 3e 6c 82 b3 3d
       0.33041468 -0.09129739 0.2842179 0.087651104
000140 3c ed 1e 3e 25 6b 45 bd 9f 7f a6 3e 06 86 04 be
       0.15520185 -0.048197884 0.32519242 -0.12941751
000150 04 86 6d 3d 78 1a ee 3c da b6 e5 be e1 c6 a6 bd
       0.057989135 0.029065356 -0.44866067 -0.08143402
000160 0e 09 3e be 4d b6 57 be d4 ac 3b 3c 26 72 82 be
       -0.18558142 -0.21065636 0.01145478 -0.25477713
000170 9f 17 eb bc 1b 81 83 be cb 3d a2 ba 7c cb 62 be
       -0.028697787 -0.25684437 -0.0012378035 -0.22147936
000180 1f ed 50 be a9 bb 96 3e 86 b0 6d be 8e d0 f9 3d
       -0.20402955 0.29440048 -0.2321187 0.12197982
000190 42 de 83 3c 02 28 01 3f 61 8d e1 bd 38 cc d6 be
       0.016097192 0.5045167 -0.11013294 -0.41952682
0001a0 8e 07 75 be 08 39 8d 3e 78 5e 32 be 68 50 0d 3e
       -0.23928663 0.27582574 -0.1741885 0.13800204
0001b0 7d 09 26 be 32 c1 b4 3e 9d 76 84 3e ca a9 d5 3c
       -0.16214557 0.35303646 0.25871745 0.026081938
0001c0 2a 41 54 bd 36 2f 32 3e e0 96 b1 3d ff 70 15 3e
       -0.051819958 0.17400822 0.08671355 0.14593886
0001d0 db 1e dd 3c 9f 82 5d be fe 76 61 3d 8c 6b ea b8
       0.026992252 -0.21631859 0.05504512 -0.00011178022
0001e0 06 a9 90 3d 76 d2 9b 3e b2 64 77 3d e1 a1 cc 3e
       0.07063489 0.30434006 0.060398765 0.39967254
0001f0 89 c8 0a be 7b 3c 3e bd b0 54 29 bc b8 8e dc 3d
       -0.1355306 -0.046444397 -0.0103351325 0.10769409
000200 1b cc 25 bd f5 d6 7b be 24 1d 6c be d2 64 8d bd
       -0.040477853 -0.24593718 -0.23057991 -0.069039956
000210 e6 8d 70 bd 41 6f a1 be 8e 69 2e bd 93 e8 6a be
       -0.058729075 -0.31530192 -0.042581134 -0.22940283
000220 bb 53 dd 3d 20 a8 3b 3e 48 c7 84 3d ec da 0c 3d
       0.10806986 0.18325853 0.064833224 0.034388468
000230 14 70 4e be 59 40 7b be 46 81 23 be 8e 44 ad bc
       -0.20159942 -0.24536265 -0.15967283 -0.021150853
000240 28 e7 ab bd 15 de 68 3d df 13 e0 bd fe 9e 55 be
       -0.08393699 0.05685242 -0.1094129 -0.20861432
000250 a7 5f bf be 6b 00 56 be 1a f2 eb be 7c eb 07 3e
       -0.37377664 -0.20898597 -0.46083146 0.13273424
000260 c4 8b 1b 3e 7a 4f 8d 3d 68 58 57 be 06 1f df bc
       0.15190035 0.068999246 -0.21029818 -0.027236473
000270 ec 9a 26 be 53 7d aa 3d e2 cb bb bc 0e eb 36 3e
       -0.16270036 0.08324685 -0.022924367 0.17863104
000280 39 58 76 3d 20 f2 84 3e 8c d3 6d be 1f 8c 95 bd
       0.06014273 0.25965977 -0.2322523 -0.073021166
000290 ce dc 0c 3e 19 ef 81 3e c5 9d 2f 3e d2 d8 17 3f
       0.13756105 0.2537773 0.17150028 0.59315217
0002a0 04 3c e7 3d dc f8 f8 3d 83 08 69 bd 2b 8e 32 bd
       0.11290744 0.12156841 -0.056892883 -0.043592613
0002b0 f3 97 97 be 87 5e 0a bc e9 44 77 be e4 ce 95 bd
       -0.29608116 -0.008445389 -0.24147381 -0.07314852
0002c0 04 8e 46 be 7c 23 33 be 09 83 02 3e a2 c0 08 3e
       -0.19390112 -0.17494005 0.12745298 0.13354734
0002d0 45 00 1b 3e 77 9b 4d bb c0 e2 06 be 6e e4 12 be
       0.15136822 -0.0031373182 -0.13172436 -0.14344952
0002e0 9e e1 51 be 24 1a cf bd 26 eb ba 3d 57 3b 53 3d
       -0.20496222 -0.10112408 0.09126882 0.051570263
0002f0 a4 e6 98 3d 3f 57 93 be 61 5d ae be ca 0c 8b bd
       0.07465866 -0.287775 -0.34055617 -0.06789549
000300 19 de f0 bd c8 b3 d3 bd c5 39 c9 3c 8d 63 30 3e
       -0.11761112 -0.10337025 0.02456368 0.17225476
000310 91 44 82 be 3e d3 53 3c 48 3a 47 bd f9 3c 26 be
       -0.25442937 0.012928782 -0.048639566 -0.16234197
000320 86 34 9f bd 01 e4 84 3d 48 c7 07 3d 6f b2 e8 bc
       -0.0777369 0.06488801 0.033149034 -0.028405396
000330 e4 78 3c be 2a cc 97 3c c2 13 b7 bd 90 b4 e2 3e
       -0.18405491 0.01852997 -0.089393154 0.44278383
000340 2a 90 23 3e 13 19 06 3f c3 33 d9 bd a2 c4 1f 3e
       0.15972963 0.5238201 -0.10605576 0.15602353
000350 9a 01 40 3e 2e 95 32 3d 40 e0 9c 3e 9e fa ac 3d
       0.18750611 0.0435993 0.3063984 0.08446239
000360 9b 6d 8b 3e fb 36 e1 3c 91 88 48 3e 72 84 05 3e
       0.2723206 0.027492037 0.19583346 0.13038805
000370 c1 f2 93 bd 9d c2 75 bc 1c e6 41 3e 75 97 4a 3b
       -0.07224036 -0.015000013 0.18935436 0.003091303
000380 b6 dc 3e 3e b8 6d e9 bd 53 93 02 3e c7 50 4c be
       0.18638882 -0.1139788 0.12751512 -0.19952689
000390 ef d8 32 be 1e b3 f0 bd 20 d7 1c be 3c 73 bb bd
       -0.17465566 -0.11752914 -0.15316439 -0.091528386
0003a0 e8 da b0 3c e7 f9 fa bd 7f 8a 35 bd c9 0d a4 be
       0.021588758 -0.12254696 -0.044321533 -0.32041767
0003b0 44 7d 9f 3d 11 68 0b be 1a e0 1e be 61 79 73 bd
       0.077875644 -0.13613917 -0.15515175 -0.059441928
0003c0 5d 4a 82 bd 13 75 99 be c7 f0 73 3e cb 9f 95 3c
       -0.0636184 -0.29972133 0.23822318 0.018264672
0003d0 d3 b1 5d bd 35 2a 7c be 10 ed 50 be d0 16 ba be
       -0.054124665 -0.24625476 -0.20402932 -0.3634553
0003e0 73 fc d4 3d c1 3f 48 be b5 de 8d 3d 43 eb f6 bb
       0.10399713 -0.1955557 0.069272436 -0.0075353696
0003f0 40 c0 8d bc 70 bf 29 3d cd 6f 93 3d 73 cd d0 3d
       -0.017303586 0.041442335 0.07199059 0.10195436

sequential/dense_1/MatMul f4 [64, 128]
000000 a1 1b 06 3e 1f c5 a1 bc 31 e1 28 3f 89 0b 9d bb
       0.13096477 -0.019747315 0.65968615 -0.004792635
000010 69 6c 19 3d c3 73 2e be 9e 31 55 3d 39 6b 8b be
       0.037456904 -0.17036347 0.05204927 -0.27230242
000020 96 bf e2 3e c5 76 32 3e e9 9c b6 3e 8a 82 18 be
       0.44286793 0.1742812 0.35666588 -0.14893547
000030 93 53 90 3e 05 d7 46 3e d0 6a ee be 4b 4c 1e 3e
       0.28188762 0.19417961 -0.46565866 0.15458791
000040 02 98 d7 bd 72 d5 29 bc 29 06 dc be e1 be b6 be
       -0.1052704 -0.010365831 -0.4297345 -0.35692504
000050 ef 4d 9d 3e 69 05 d4 3c 63 c2 eb 3e 3b a2 0f bb
       0.3072352 0.025881486 0.46046743 -0.0021916765
000060 b6 54 35 3e a4 4f cd be a7 ac 11 3e 49 98 34 be
       0.17708096 -0.40099823 0.14226018 -0.17636217
000070 32 4e 77 3e 49 1f b7 3e cb 98 dc 3d 83 ba 9d bd
       0.24150923 0.35766056 0.107713304 -0.0770159
000080 c9 48 b2 3e b3 bc ee bc 1c 26 9a 3e 80 d3 d0 bc
       0.34821156 -0.029142713 0.301072 -0.025491476
000090 6f 9b 0a 3e 1b 14 a3 be b9 a7 aa 3e 3a 59 e7 bd
       0.13535856 -0.31851277 0.33331087 -0.112963155
0000a0 5b 81 d1 3d ab eb b0 be 0c 07 08 3e 1d 81 18 bd
       0.10229751 -0.345548 0.13283938 -0.037232507
0000b0 75 a7 9c 3d 7e b7 ea 3e a5 31 5c be b9 4b 8e 3c
       0.076491274 0.45843118 -0.21503313 0.017370092
0000c0 8b b3 5c bd a3 ca 31 3d 69 42 61 3e 8a c1 1d 3e
       -0.053882163 0.04340614 0.2199799 0.1540586
0000d0 14 f2 ee 3e 47 7d 70 be b2 76 d0 bc 53 12 64 3c
       0.46669066 -0.2348529 -0.025447223 0.013920384
0000e0 48 12 9f 3e 00 61 5b be 20 79 61 3a b6 06 bf 3e
       0.31068635 -0.21423721 0.0008601118 0.37309808
0000f0 2c 66 ea bc 40 99 72 bc fb 9a 1c 3d df a9 32 be
       -0.028613172 -0.014807045 0.03823374 -0.17447613
000100 bd ff b1 3e b9 98 86 be 86 ca f8 be bb e4 46 3e
       0.34765425 -0.26288393 -0.48592013 0.19423191
000110 dc ad 8c be 48 b2 08 3d 5b 3d b4 bc a6 bc b0 3e
       -0.27476394 0.033373147 -0.022001913 0.34518927
000120 9a ac b5 3e c1 c2 3f be a4 89 0d bf 6f 44 3a 3e
       0.35483247 -0.18726636 -0.5528815 0.18190168
000130 f6 21 2e be 5e 6a c3 3e 7a 62 e3 3d 30 73 66 3d
       -0.17005143 0.3816709 0.11102767 0.056262195
000140 e0 ac f5 bd 08 59 14 3e 0a 8b fc 3d c4 ed 5a be
       -0.11995864 0.14487088 0.12331207 -0.21379763
000150 4e 24 09 bf e3 0c ff 3d 6f 95 e0 bd 6d bd 90 3e
       -0.5357102 0.1245363 -0.10966002 0.2826952
000160 ec a8 a9 be 5b 75 ec 3c 79 97 82 bc b3 9b 41 3e
       -0.3313669 0.028864553 -0.015941368 0.18907051
000170 07 51 a4 be 49 e3 e3 3e d1 33 0e bd af 21 b4 3e
       -0.3209307 0.44509342 -0.034717385 0.3518195
000180 ae 15 fb bc e9 02 ca be 53 d1 a6 be 9a 1b 5a 3d
       -0.030649986 -0.39455345 -0.32581577 0.05324898
000190 20 23 06 bc e3 dd 98 be 37 40 8d 3e 6c 89 ac be
       -0.008187085 -0.29856786 0.27588055 -0.33698595
0001a0 74 53 78 bd 4f 61 cf bb 47 d0 96 be 77 57 87 3e
       -0.060626462 -0.0063287388 -0.29455778 0.26433918
0001b0 5c e0 6c 3e d5 3b b1 be c8 3a 24 be f9 7a 98 3d
       0.23132461 -0.3461596 -0.16038048 0.0744533
0001c0 91 4d 03 3e d6 84 61 3d f1 aa ce 3e 2a 4e 9b 3e
       0.12822558 0.055058323 0.40364793 0.30333072
0001d0 04 dc 63 be 65 a1 16 3e da a1 ec be e8 1f 60 3d
       -0.22251898 0.14710005 -0.46217233 0.05471793
0001e0 ef c7 5f 3e 4d fa 3a be 8a d4 cf ba 2a 9f a3 bd
       0.21853612 -0.18259545 -0.0015856188 -0.079893425
0001f0 69 e3 8f 3c c4 78 84 3e ad 73 2e 3e 5a 45 90 3e
       0.017564492 0.25873387 0.17036314 0.2817791
000200 4e cf b4 3e ad 4c 19 bd 99 43 c2 3d 5c 5c 92 bd
       0.3531441 -0.03742664 0.094855495 -0.071465224
000210 9c 99 16 bd ed 90 29 3d 2b 83 56 3d f9 19 87 3e
       -0.036767587 0.041397978 0.052371185 0.26387003
000220 ae ad 22 3e c3 63 b5 3e 4d 5a e4 bc 06 88 36 3d
       0.15886566 0.35427675 -0.02787509 0.044563316
000230 a8 d5 eb 3d 42 b2 9c be ec 7c 8f 3d 53 59 7c bd
       0.11515361 -0.3060475 0.07006249 -0.061608624
000240 37 83 c7 3e 20 c9 a7 bd 0c 2c ef 3c 5e 64 d7 be
       0.38967296 -0.081926584 0.029195808 -0.42068762
000250 c3 39 12 bd 67 7f 52 3d 85 0c 5a 3e b2 e8 76 3a
       -0.035699617 0.05139103 0.21293838 0.00094188296
000260 d1 1e f4 3d b8 2a 83 be 80 3f 0d 3e dd d8 96 ba
       0.1191994 -0.2561853 0.13793755 -0.0011508722
000270 d5 cf b5 3d 2a 6b 4b bc 18 55 81 3e c0 1d 7c be
       0.088775314 -0.012415687 0.25260234 -0.24620724
000280 d1 36 d5 bd e0 39 54 bf c9 5d 80 be ce b7 2d be
       -0.10410846 -0.8290081 -0.25071552 -0.16964647
000290 2a a2 01 3f 9c f1 3f 3e 02 9b 2c 3c cb d2 c5 bd
       0.5063807 0.1874451 0.010535004 -0.09659346
0002a0 17 9d 97 3b cc d8 0a 3e 42 7b 59 3d 1e 10 29 be
       0.004626881 0.13559264 0.053096063 -0.16510054
0002b0 69 dd a7 3d 51 65 af bc 28 53 11 bf c3 5b be bb
       0.081965275 -0.021410616 -0.5676751 -0.0058092787
0002c0 cc c4 93 3d 71 37 9e 3e 40 4d 28 3d bb 08 f5 3d
       0.072152704 0.30901673 0.041089296 0.11964556
0002d0 a4 a1 84 3e 73 46 bf 3e 13 f8 2f bd 35 0c 5b be
       0.25904572 0.37358436 -0.04296119 -0.21391375
0002e0 5d 17 54 be 7e ee 83 be 71 82 37 be 3a e8 88 be
       -0.20712037 -0.25767893 -0.17920853 -0.26739675
0002f0 e4 56 22 3c ca 96 51 bf 1e 1f af bd 2a 79 5e 3d
       0.009908412 -0.8187071 -0.08550857 0.05431477
000300 8d df 99 3e ad 54 34 3e fd 83 3d 3e c7 92 4d bd
       0.30053368 0.17610426 0.18507381 -0.050188806
000310 fe dc 14 3d ec 94 ef 3e 4e 31 c7 bd b5 98 61 3d
       0.036343567 0.46793306 -0.09726201 0.055077273
000320 8d 1e 91 3d 58 26 ff bd ca 1e d9 3e 32 44 9e 3e
       0.07085905 -0.12458485 0.42406303 0.30911404
000330 5b b3 47 3e 4e 3e 72 be 93 ff 07 bb 98 0d 35 be
       0.19502012 -0.2365658 -0.00207517 -0.17680967
000340 9f 5e 9c bd 7b 41 7e be b9 28 2a 3e 93 ab 93 be
       -0.07635235 -0.24829666 0.16617097 -0.28841838
000350 b5 99 0a 3e 58 0e 5c be eb 5f ce 3d 4a 3c b5 be
       0.13535197 -0.21489847 0.10076889 -0.3539756
000360 a4 71 12 3e c7 fc cf 3d 17 92 62 3e 7d 36 0b be
       0.14301163 0.10155635 0.22126041 -0.13595004
000370 d4 f4 8d 3e 0a 72 c4 bd 45 3e a5 bd 5d 46 9c 3d
       0.27725852 -0.09592064 -0.080685176 0.07630608
000380 b0 ed 61 3e 6c 31 7e bb 3b 1e a8 3d 2c 61 a2 bd
       0.22063327 -0.0038786782 0.08208891 -0.0792869
000390 6d 79 bb bc 14 a7 9b be 1b a7 25 ba fd 27 a1 3e
       -0.022885049 -0.30400908 -0.0006319151 0.3147582
0003a0 2f 67 2f be 8c 24 1c be ef fa 6a 3e 09 1f fe 3c
       -0.17129205 -0.15248317 0.22947286 0.031020658
0003b0 99 8f db 3e 2e 7f 12 bf 7b 21 7a 3e 3a 0e 8d bd
       0.42882994 -0.5722531 0.24426834 -0.06887479
0003c0 56 47 90 bc 68 d9 e7 3c ca 47 a3 3e 2d 37 af 3d
       -0.01761214 0.02830191 0.31890708 0.08555446
0003d0 fc 75 ea 3c c4 e8 57 3d c6 34 63 3e cd 8a 09 3e
       0.028620712 0.052712217 0.221881 0.13431855
0003e0 72 9d 7d 3c 12 f1 35 3e 2c 0f b5 bd 19 c3 29 3d
       0.015479432 0.17767742 -0.088407844 0.041445825
0003f0 19 63 47 3d a6 2d b8 be ad 60 7c 3e b9 7c 92 3e
       0.04867849 -0.35972327 0.24646254 0.2861078

sequential/dense_2/MatMul f4 [9, 64]
000000 86 5a 0e bf 1b 26 35 bc 0d a4 7e bf 73 34 1c 3e
       -0.5560688 -0.011056448 -0.9946907 0.15254383
000010 df 7e 1d 3e 5c 4d 97 3e 9c fe 65 3e c2 1d 0c 3d
       0.15380429 0.29551208 0.22460407 0.034208067
000020 0d bd 38 bf 6d d4 5b 3e 0c 02 1c 3e f6 fc 36 bf
       -0.7216347 0.21467753 0.15235156 -0.7147974
000030 27 50 8c 3e d9 7d 6c 3e f1 ca 5e 3e df 7d 18 bf
       0.274049 0.23094882 0.21757104 -0.59567064
000040 2c 4b 21 bf 76 cd 5f 3e a9 70 78 be b2 c4 73 3e
       -0.6300533 0.21855721 -0.24261726 0.23805502
000050 95 9d 7c 3e d6 cd 43 bf c8 51 4e 3e a2 eb 6c be
       0.24669488 -0.76485956 0.20148385 -0.23136762
000060 fb 29 0a bc 94 80 9f be b4 f6 00 bf 3c 34 9d 3d
       -0.0084328605 -0.31152785 -0.5037644 0.076759785
000070 b6 36 d0 3e a8 d4 6b be 3f 39 28 3e c9 3b 35 bf
       0.4066674 -0.2303034 0.16428088 -0.7079435
000080 b3 98 1c bf d5 45 83 bf 5e f1 52 3e 56 68 3c 3e
       -0.611705 -1.0255686 0.20599887 0.18399176
000090 d2 11 4c 3e 8a e3 68 be 8e a8 a1 3e 87 4e 3a 3e
       0.19928673 -0.2274305 0.3157391 0.18194018
0000a0 4c e0 28 bf 21 8a a1 3c 15 43 4c 3e f5 d2 07 be
       -0.6596725 0.019719185 0.19947465 -0.13264067
0000b0 26 4f 9a bc be dc 4a 3e c8 a7 4d bf 88 bf 89 3e
       -0.018836569 0.19810769 -0.8033414 0.2690394
0000c0 b9 54 1f 3d 8f ed b3 be 1c 83 9a be 0a 91 0d 3e
       0.038899157 -0.3514218 -0.30178154 0.1382486
0000d0 14 ab ff bc d8 05 c2 be 63 de 2e 3e 8b 97 ad be
       -0.031209506 -0.37895083 0.17077021 -0.3390468
0000e0 76 33 66 3e 1b 88 02 bf 3d cf 36 bf 4a e0 24 3e
       0.22480568 -0.5098893 -0.7140997 0.16101184
0000f0 3e 93 81 bc e3 33 2b 3d 7a e7 6d 3e b5 a0 0d bf
       -0.01581728 0.04179753 0.23232833 -0.55323344
000100 fb 66 9d 3e 5d 64 91 3e 40 37 a0 be 90 3d 95 be
       0.3074263 0.28396884 -0.31292152 -0.2914853
000110 32 e4 26 bf b2 e3 d4 3e 9a 98 f5 bd 86 1e c6 be
       -0.6519195 0.41579968 -0.11991997 -0.38695163
000120 50 a7 e4 3d a2 6f 0b 3f 1d b5 6f be 0d d0 4b bf
       0.11164725 0.54467213 -0.23408933 -0.79614335
000130 f4 5a b9 be 80 a6 bf bd 9f 7b 8c 3e a9 4b 51 bf
       -0.36202204 -0.09357929 0.27438065 -0.81756073
000140 27 ea 6e 3e 98 f3 ae 3e be 87 cb 3e 95 da e7 bd
       0.2333151 0.34170222 0.39752 -0.11320988
000150 a4 64 88 be 58 25 63 3e 30 eb a8 3e 53 25 28 3e
       -0.26639283 0.22182214 0.32991934 0.16420488
000160 86 dd 87 3c 2f fa 25 bf 02 9f 35 3e 59 ce b7 be
       0.016585123 -0.64834875 0.17736438 -0.35899618
000170 b8 eb ab 3e 61 8c ef bd 92 d1 eb be f9 5b a8 be
       0.33578277 -0.11696697 -0.46058327 -0.3288267
000180 7e 1d d2 3e 4a b7 80 3d ea a3 28 bf 0f 08 27 be
       0.41038126 0.062849596 -0.65875113 -0.16311668
000190 5e 96 b8 be 31 95 6e 3e 13 5e d3 ba 52 62 f3 3d
       -0.3605222 0.232991 -0.0016126059 0.118839875
0001a0 67 f2 f7 3d 61 a4 f2 3d 0b 8e 6d 3e 0c 9f b5 3e
       0.121067815 0.11847759 0.23198716 0.35472906
0001b0 d5 c7 f4 be 02 30 a3 bd 71 c7 a8 3e 02 79 25 3e
       -0.4780871 -0.07968141 0.32964662 0.16159442
0001c0 69 79 f3 bd 17 58 94 3e a7 58 7b bf 8b 01 24 be
       -0.118883915 0.28973457 -0.9818215 -0.16016214
0001d0 98 e0 2a 3e d9 dc 6a 3e c8 ce 4a be b4 11 04 be
       0.16687238 0.22935809 -0.19805443 -0.12897378
0001e0 33 f0 9e 3e 3c 32 29 bf d0 d4 40 bf 8f cc 16 bf
       0.31042632 -0.66092277 -0.75324726 -0.5890588
0001f0 d4 49 8e be c1 50 5e be 2e 5a 08 bf f0 35 01 bf
       -0.277907 -0.21710493 -0.53262603 -0.5047293
000200 39 a5 81 3e 68 1d 7e be 11 f2 b5 be 02 fc fc be
       0.25321367 -0.24815905 -0.35536245 -0.49411017
000210 97 d8 0b 3e 7c 74 bc 3e 78 73 1f be 29 84 4f bf
       0.13656841 0.3680762 -0.15571392 -0.81061035
000220 85 29 c6 3b 91 f2 86 3e 4e 7d 7c 3e 14 44 45 bd
       0.00604743 0.26356938 0.24657175 -0.048160627
000230 0c 43 03 bf 68 e6 67 bf f1 29 13 bf 29 f1 de 3e
       -0.5127418 -0.9058595 -0.5748587 0.43543366
000240 7d b6 4f be 91 dc 1b bf 6c e1 85 3e f9 46 d0 3e
       -0.20284458 -0.6088343 0.26148546 0.40679148
000250 8c 61 19 be 32 f5 07 3e 43 07 bb be 14 d2 71 3c
       -0.14978617 0.13277128 -0.36528978 0.014759559
000260 dd b7 a5 bc 4c e2 41 3e 56 5c 38 bf 37 4d dc be
       -0.020229274 0.18933982 -0.72015893 -0.4302766
000270 6f c9 f4 be 5e 11 32 bf ba 16 54 3e 17 7c a5 3e
       -0.47809932 -0.6955775 0.20711794 0.32321236
000280 91 88 d8 3e 61 25 d1 3d 8b 85 d4 3d 1a d1 e1 be
       0.42291692 0.102122076 0.10377034 -0.44104844
000290 65 a9 d1 3e 1e bd 7a bf 3e ff 1e bf 22 a7 a7 3e
       0.4094955 -0.9794482 -0.6210822 0.327447
0002a0 4d 27 4c 3e 3e 25 00 3e be 2e b6 be 22 d6 8c be
       0.19936867 0.12514207 -0.35582536 -0.2750712
0002b0 15 bf 0f 3e 71 ec c2 3e cf 95 35 bf 7e 67 39 bf
       0.14037736 0.38071015 -0.70931715 -0.7242354
0002c0 3f a9 3c 3e 7a c0 d6 be 9c 6e e5 be 1a 79 3b 3e
       0.18423937 -0.41943723 -0.4481095 0.18307915
0002d0 f6 f5 20 3d 3a ea c5 3e dd ad a6 3e f4 92 f5 bd
       0.039297067 0.38655263 0.32554522 -0.1199092
0002e0 00 67 07 bf c7 ff 23 be 7b 46 e4 be 36 ea c9 be
       -0.5289154 -0.1601554 -0.44585022 -0.394365
0002f0 5a 96 21 be fc 95 dd be 99 f6 04 bf 25 e4 98 3e
       -0.15780011 -0.43278491 -0.5193878 0.2986156
000300 f4 79 52 bf 41 b2 1d 3f 78 42 9d 3e 32 0e d1 3e
       -0.82217336 0.6160012 0.30714774 0.40831143
000310 78 88 8c 3e f7 9b 7c be 48 48 dd be 10 f3 5c 3e
       0.27447867 -0.24668871 -0.4321921 0.21577096
000320 b6 8b 3c bf 23 07 11 3e fc 4c 49 bf ec 14 71 3e
       -0.7365068 0.14162879 -0.78633094 0.23543137
000330 9a 49 3e be 08 b8 37 3e d3 88 4b be 62 d0 fe bd
       -0.18582764 0.17941296 -0.19876413 -0.124420896
000340 63 45 ae 3e b1 86 97 3e 81 39 d2 bd c9 df 73 3e
       0.34037313 0.2959495 -0.10264874 0.23815836
000350 8d d2 86 be 14 1d 49 3e b7 26 19 3e 21 15 38 bf
       -0.26332512 0.19639999 0.14956175 -0.7190724
000360 6f 9e 1a 3e 7f 0a 01 3f f0 c4 d6 bc ba 05 29 3e
       0.150995 0.5040664 -0.026216954 0.16506091
000370 ef f6 f5 3e 58 f1 3f 3e 29 56 3f bf 9f c5 4b be
       0.48039958 0.18744409 -0.74740845 -0.19899605
000380 9a 11 97 be e1 79 5a bf ad d1 4b be eb 59 b5 be
       -0.29505616 -0.8534222 -0.19904204 -0.35420164
000390 aa db 1b bf 37 29 e1 be 4c 7b 0f bf 45 c0 07 bf
       -0.60882056 -0.43976757 -0.5604751 -0.53027755
0003a0 9a 74 eb 3d 8d be 22 bf f7 38 d6 be b0 f4 96 3e
       0.11496849 -0.6357201 -0.41840336 0.29483557
0003b0 17 28 18 bf 89 93 d7 3c 92 54 9a 3e 70 50 47 3e
       -0.5943617 0.026315467 0.30142647 0.19464278
0003c0 a4 b8 19 bf 58 88 89 3e 0a 2f 1a 3e 03 d0 5a 3e
       -0.60047364 0.26861835 0.15057006 0.21368413
0003d0 10 9b c0 3d 32 f6 34 3e 97 e4 22 bf 71 09 31 3f
       0.09404576 0.17672041 -0.6363005 0.6915503
0003e0 c9 1c 4b 3d 49 1c a5 3e 30 7a 86 3e 73 7e d3 3d
       0.049588 0.32248142 0.26265097 0.10326853
0003f0 84 ac 10 bf 72 bf a3 3d ab f0 54 be c3 97 54 be
       -0.5651324 0.079955 -0.20794933 -0.20761018
